models/apple_tiny_finetuned/model.safetensors (safetensors, 413296 bytes, 28 tensors)

transformer.h.0.attn.c_attn.bias f4 [6]
000000 53 4f 93 38 6c 3d 36 b6 73 05 5b ad 6e a7 d7 2e
       7.0242815e-05 -2.7155866e-06 -1.2449919e-11 9.8068095e-11
000010 7b e2 81 b9 c9 69 c8 b8
       -0.00024773538 -9.556447e-05

transformer.h.0.attn.c_attn.weight f4 [2, 6]
000000 4f 48 bf bc 8d ed c9 bc c4 73 f5 bb 0b 52 fe bb
       -0.02334991 -0.024649406 -0.007490607 -0.007761245
000010 11 d4 c4 bc cd c7 a9 bc 3d c9 8f bb 84 7e 58 3c
       -0.024026902 -0.020725155 -0.004388003 0.013213757
000020 69 90 77 bc 12 03 82 ba b0 59 1d 3d 1b 87 8b bc
       -0.015110114 -0.0009919128 0.03841561 -0.017032197

transformer.h.0.attn.c_proj.bias f4 [2]
000000 3d cf 1d b8 56 14 ad 38
       -3.7624723e-05 8.253071e-05

transformer.h.0.attn.c_proj.weight f4 [2, 2]
000000 a1 47 88 ba e8 ff c2 ba a2 f4 68 bd b8 43 c2 bc
       -0.0010397324 -0.0014877291 -0.056873925 -0.023713931

transformer.h.0.ln_1.bias f4 [2]
000000 42 5d cb 38 bc e7 c1 38
       9.697165e-05 9.246121e-05

transformer.h.0.ln_1.weight f4 [2]
000000 73 ef 7f 3f 66 08 80 3f
       0.99974746 1.0002563

transformer.h.0.ln_2.bias f4 [2]
000000 ee c6 e1 38 75 0b 79 b8
       0.000107658896 -5.9376896e-05

transformer.h.0.ln_2.weight f4 [2]
000000 36 f6 7f 3f b7 f5 7f 3f
       0.99985063 0.99984306

transformer.h.0.mlp.c_fc.bias f4 [8]
000000 64 d4 a1 b8 a1 e9 7e b8 51 91 59 b8 36 37 cc 38
       -7.716639e-05 -6.0775903e-05 -5.1872168e-05 9.737762e-05
000010 9e e6 6b b8 b0 d7 70 b8 e5 a2 e9 38 a5 ed 2f 39
       -5.6243145e-05 -5.7421334e-05 0.00011140647 0.0001677783

transformer.h.0.mlp.c_fc.weight f4 [2, 8]
000000 31 3d 27 3c 03 aa 68 bc cf 72 ac bb 6f 95 75 3c
       0.01020746 -0.01420069 -0.0052627097 0.014989241
000010 70 62 d0 3b 4a c2 af bb be c0 8d 3c 69 01 42 3c
       0.006359391 -0.0053637372 0.01730382 0.0118411565
000020 27 f1 84 3b fb a3 98 3c c2 0d 44 3c 03 2c d1 3c
       0.004057068 0.01863288 0.011966171 0.025533682
000030 a2 06 93 bc da ec a5 bc 76 c5 eb bc 61 04 20 bb
       -0.017947499 -0.020254541 -0.02878068 -0.0024416673

transformer.h.0.mlp.c_proj.bias f4 [2]
000000 7f 86 c7 38 b5 de 5a b8
       9.514111e-05 -5.2182662e-05

transformer.h.0.mlp.c_proj.weight f4 [8, 2]
000000 dc 00 1e bd 7c 0f d6 3c d5 30 8d bb e6 cf 19 3c
       -0.03857504 0.02613043 -0.0043087997 0.009387946
000010 e5 f4 9a ba fd d2 c4 3c c7 f5 09 3c 81 80 54 3a
       -0.0011822252 0.024026388 0.008420414 0.0008106307
000020 45 16 30 bb 52 86 87 3d 62 22 94 bb b1 1a 32 3d
       -0.0026868742 0.066174164 -0.0045207003 0.043482486
000030 8e f9 af 3c 67 8c 83 3b 7b 51 87 3c 50 9c 44 3c
       0.021481302 0.00401454 0.016518345 0.012000158

transformer.h.1.attn.c_attn.bias f4 [6]
000000 6f 50 8c 38 9f a5 02 38 f6 d3 ab 2d 59 5f d9 2d
       6.690702e-05 3.1148662e-05 1.9534579e-11 2.4712387e-11
000010 b9 b3 1d 39 3c 14 85 38
       0.00015039639 6.345703e-05

transformer.h.1.attn.c_attn.weight f4 [2, 6]
000000 75 37 31 3c 25 7e d9 3b de 0c ac bb 35 76 73 ba
       0.010816445 0.006637352 -0.0052505573 -0.00092873286
000010 3b 53 5b bc e0 a3 c7 3a 17 58 bf bb 93 12 b4 bc
       -0.013386543 0.0015231334 -0.0058393585 -0.021981513
000020 c3 94 ce ba 1f ae 90 3c ec 06 bf 3b 86 60 8a bb
       -0.0015760887 0.017661152 0.0058296826 -0.0042229323

transformer.h.1.attn.c_proj.bias f4 [2]
000000 27 73 ba 38 8e 3b 0e b8
       8.89062e-05 -3.3910903e-05

transformer.h.1.attn.c_proj.weight f4 [2, 2]
000000 0c 0f f6 3b 23 5e 28 3c ab eb 94 3c 20 79 aa bc
       0.007509118 0.01027635 0.018178781 -0.02080971

transformer.h.1.ln_1.bias f4 [2]
000000 d4 58 4f 35 55 3e 41 b8
       7.724277e-07 -4.6072837e-05

transformer.h.1.ln_1.weight f4 [2]
000000 5c ef 7f 3f 71 ef 7f 3f
       0.9997461 0.99974734

transformer.h.1.ln_2.bias f4 [2]
000000 53 0d ae 38 03 86 bc b8
       8.2994484e-05 -8.9895e-05

transformer.h.1.ln_2.weight f4 [2]
000000 ce 03 80 3f 36 fd 7f 3f
       1.0001161 0.99995744

transformer.h.1.mlp.c_fc.bias f4 [8]
000000 97 93 c7 38 a4 d4 ab 38 46 e2 71 b8 18 e8 98 38
       9.51655e-05 8.193523e-05 -5.766961e-05 7.2911556e-05
000010 91 eb e9 38 27 ed c5 38 f6 29 d6 38 a8 53 e2 b8
       0.000111541834 9.437865e-05 0.00010212131 -0.00010792102

transformer.h.1.mlp.c_fc.weight f4 [2, 8]
000000 f3 f6 c2 3c ca 1a c0 3c c9 39 56 3c 44 75 59 3c
       0.023799395 0.023450274 0.0130753005 0.013272587
000010 d1 9d c8 bc 2f fa ef ba f7 ea c7 3b 73 51 a7 bc
       -0.024489315 -0.0018308813 0.006101008 -0.02042458
000020 13 5d 16 bd f7 09 0b 3d 5c 57 83 ba 81 7c ab bc
       -0.036709856 0.03394505 -0.0010020542 -0.020933392
000030 cc 4b 9c 3c ec 62 9f bb b9 2c 56 bc af ae 47 bd
       0.019079112 -0.0048640873 -0.013072186 -0.048750576

transformer.h.1.mlp.c_proj.bias f4 [2]
000000 78 f4 e0 38 62 fb ab b8
       0.00010726688 -8.200739e-05

transformer.h.1.mlp.c_proj.weight f4 [8, 2]
000000 22 fe 60 3c 4a 00 07 bd 7e 4c 1c 3a 14 b0 6a bc
       0.013732465 -0.03295926 0.0005962326 -0.014324207
000010 11 5a 6b bc 5d d0 52 bc 80 f8 fe bb 5a 7b 9d bc
       -0.014364735 -0.0128670605 -0.0077810884 -0.019223858
000020 fe a2 18 3d df 9d 27 3c 3c 91 1e 3c 32 e5 11 bc
       0.037264816 0.0102305105 0.009678181 -0.008904742
000030 2e 4e 50 3c ed 05 9c bb 21 5d 69 bc 3e d3 cd 3a
       0.012713952 -0.0047614486 -0.014243395 0.0015703214

transformer.ln_f.bias f4 [2]
000000 ad d3 76 b9 a5 3d 01 b9
       -0.00023539244 -0.00012325363

transformer.ln_f.weight f4 [2]
000000 5c 0e 80 3f c2 df 7f 3f
       1.0004382 0.999508

transformer.wpe.weight f4 [1024, 2]
000000 c9 89 a3 3c d6 b4 19 bb 7c de 0f 3d 49 ed 5f bc
       0.019963162 -0.0023453734 0.035124287 -0.013667413
000010 7e da 70 ba 5a a0 48 3b 55 1e c0 bc d1 a8 19 3c
       -0.00091878313 0.0030613155 -0.023451963 0.009378628
000020 1a a5 17 3c 81 d7 6f bb 5a ac 91 3c 15 83 ee bc
       0.009255672 -0.0036596956 0.017782379 -0.02911524
000030 8f 1e df bc cf 0f 7c bc e3 37 58 3c 71 a7 98 3b
       -0.027236251 -0.015384628 0.013196918 0.0046586324
000040 ca d0 42 3c 48 12 a5 bc f5 40 44 3c 06 78 25 bb
       0.0118905995 -0.020150319 0.011978378 -0.0025248541
000050 06 4d 2e 3d 85 6e f1 bb 45 73 44 3c 5f 6d 7a bc
       0.042553924 -0.0073679113 0.011990373 -0.015284865
000060 78 b5 53 3c 5b ef db ba c3 4f 11 bc 48 d2 f0 bc
       0.0129216835 -0.0016779708 -0.008869114 -0.029397145
000070 2d 1e 09 bd 97 6e 55 ba 6d ea b2 3c 63 d0 ec bb
       -0.033476043 -0.00081417843 0.021840299 -0.00722699
000080 4b 4d e2 3c 3c aa ad 3c e2 88 29 3b 0f bc 0d 3b
       0.027624747 0.021199338 0.0025868942 0.0021626984
000090 c2 13 e4 bb b3 8c 23 3c 45 8d 16 3d fc 33 e7 38
       -0.006960363 0.009982276 0.03675582 0.00011024621
0000a0 1a a0 02 3d a7 9f 0c 3c f7 d4 da bb 0a a9 58 3d
       0.031890966 0.008582986 -0.0066782194 0.052895583
0000b0 2b c0 d3 bb bc 9b d1 3c 7c 08 38 bb 59 7a d1 bc
       -0.006462117 0.025586955 -0.002808123 -0.025571035
0000c0 43 39 d4 3c 65 5d 08 bd 2d c4 c6 bc a7 65 7c 3a
       0.02590621 -0.033292193 -0.024263466 0.00096281845
0000d0 95 98 5b 3c 05 5e 43 bd d2 88 e5 3b 7b 95 b5 bc
       0.013403078 -0.047697086 0.0070048356 -0.022166004
0000e0 98 99 08 bd 02 0b 33 3d d8 bd 4e 3b d7 a2 96 3c
       -0.033349603 0.04371167 0.003154626 0.018388195
0000f0 20 fb 7b 3c 3f 7a e0 3b f8 d9 e8 ba c5 7f c6 ba
       0.015379697 0.0068505104 -0.0017765155 -0.001514428
000100 9c 29 c0 3a a5 44 02 bc fd 7e 34 bc 27 bf 45 bc
       0.0014660838 -0.007950936 -0.0110166045 -0.0120695
000110 bc 60 71 3c 18 02 56 3c 42 0f 04 bc 19 46 86 bc
       0.014732536 0.013062023 -0.008060278 -0.016390847
000120 2f 2d 38 bc d9 ed 4a 3d 0e 26 9d ba 9b 3e 16 3d
       -0.011241241 0.049543235 -0.0011989491 0.0366808
000130 14 0a df 3b a5 39 15 3b 94 25 75 3c db e8 8a 3c
       0.0068066213 0.0022769955 0.014962573 0.016956737
000140 3d ed c0 ba 61 96 0b 3c 99 ba 2a bd 8c 82 92 3c
       -0.001471914 0.00851974 -0.04168186 0.017884515
000150 1b 4c 71 3c fa 62 16 bc 39 2e 99 bc a6 14 51 b9
       0.014727618 -0.009178871 -0.018698798 -0.00019939485
000160 32 3d 8d bb 55 1f 4e bc 51 9f 49 bc 99 69 03 bd
       -0.0043102736 -0.012580712 -0.01230605 -0.032083128
000170 ac 8a 8a 3b f8 cd 3d 3a 3d 9c f5 bc 6f b2 34 3d
       0.0042279568 0.00072404696 -0.029981727 0.04411548
000180 30 a8 9e 3c 81 cb 2e bc aa ac 47 bb dc 41 42 3b
       0.019367307 -0.010668636 -0.0030467906 0.0029641306
000190 3b 15 b4 bb 22 0e 18 bc 77 f5 52 ba f5 43 63 3c
       -0.005495695 -0.009280713 -0.00080474414 0.013871183
0001a0 d9 f0 26 b8 cd a6 a7 3b 65 f7 79 3c 0e d2 15 bc
       -3.980179e-05 0.0051163197 0.015256737 -0.009144319
0001b0 81 a2 b7 3c 98 82 f9 bb ee 0b 39 3c c2 30 ad 3c
       0.022416355 -0.007614445 0.011294348 0.021141414
0001c0 a9 c4 e6 3c 85 fa 63 b9 1d 2a 44 39 03 02 aa 3c
       0.028169947 -0.00021741733 0.00018707705 0.020752912
0001d0 eb 26 5b bc 74 21 9e bb 89 a2 fc bb ef 94 5f bc
       -0.013375978 -0.0048257653 -0.0077098054 -0.013646348
0001e0 8d 16 59 3d 59 17 3d 3c e0 ae 57 3c bf ee 33 bc
       0.05300002 0.011541211 0.013164252 -0.0109822145
0001f0 90 8e f0 bb 02 e4 eb 3b 12 91 ff 3b 13 97 05 3b
       -0.0073412135 0.0071988115 0.007799276 0.0020384237
000200 85 d1 64 3c 9d 46 b3 bc 60 92 ad 3c 41 c6 b7 3c
       0.013965969 -0.021884257 0.021187961 0.022433402
000210 0b 5b 0a bc 31 be 38 bc 22 8b 9f bc 4e a3 0f bd
       -0.008444558 -0.011275814 -0.019475523 -0.03506785
000220 d0 2d 9c 3c ce a7 1b bd de 8f b7 3b 89 9c 00 bc
       0.019064814 -0.038001828 0.005601867 -0.007849821
000230 ba 5e 70 bb d8 b2 6a 3c b1 0f 32 3c 2f 96 83 bc
       -0.0036677555 0.014324866 0.010867999 -0.016062824
000240 30 24 60 bc 43 70 9b 3b ef 97 d8 bc 71 00 c9 bc
       -0.013680503 0.0047436072 -0.026439635 -0.024536343
000250 b4 7d f9 bb 7b fe 48 3c c2 cb 4f bc 60 3c fc bc
       -0.007613862 0.012267704 -0.012682857 -0.030790508
000260 65 b5 8b 3c fe ca 3b bc 0c 97 4d 3c 90 19 a3 bc
       0.01705427 -0.011461971 0.012548219 -0.01990965
000270 fd 0f 26 bd 22 2e a3 3c 45 2c a6 3c 2b c7 88 bc
       -0.04054259 0.019919459 0.020284781 -0.016696533
000280 81 cf cd bb 6d 4b b1 3b 05 25 1b 3d b8 91 03 bd
       -0.00628084 0.005410603 0.0378771 -0.03212139
000290 ba 68 96 b9 ea 9e ef 3c 13 d8 75 3b 77 7f f9 ba
       -0.00028688257 0.02925058 0.0037512823 -0.001903518
0002a0 29 fe 45 3c 21 96 89 bc 5c b3 8a 3c c1 8c 5c 3a
       0.012084522 -0.01679522 0.016931228 0.0008413308
0002b0 c5 56 19 3a be 7f 2a 3d 80 5f 0f 3c 62 32 d1 3c
       0.00058494165 0.04162573 0.008750796 0.02553672
0002c0 4b c0 a5 bb 61 d7 0a bb 13 36 44 bc e2 17 a6 3b
       -0.0050583235 -0.0021185505 -0.011975783 0.005068765
0002d0 9c d8 97 bb a6 df 3b bc d0 b3 29 3c dd c9 00 3c
       -0.004633976 -0.011466896 0.010357812 0.007860628
0002e0 37 df a2 3c 05 a6 3c 3d 1d 17 0f bc 72 fc 45 bb
       0.019881828 0.046056766 -0.008733538 -0.0030210284
0002f0 c9 e3 ee bc fd 49 82 3c 2c a0 a5 3c 99 b3 01 3c
       -0.02916135 0.015904421 0.020217977 0.007916355
000300 53 81 56 3c 5e bb 9a 3b 68 74 0e bc f2 46 8e bc
       0.013092357 0.004722043 -0.008694746 -0.017367814
000310 1f 9e e8 3c 9e cf b4 3c ca 7e 82 bc 5a 52 96 bc
       0.02839571 0.022071656 -0.015929598 -0.018349815
000320 ec 3a cf 3c e0 23 b6 3c d9 b5 5b bc e8 46 53 bb
       0.02529665 0.022233903 -0.013410055 -0.0032238308
000330 0f 4d f2 3c 9d 94 bd 3c 1e f1 01 3d 61 73 53 bd
       0.02957776 0.023142153 0.031724088 -0.051623706
000340 77 aa 57 3c 76 5a a4 b9 2f 5d 04 3c e3 9f 8b bb
       0.013163201 -0.00031347916 0.008078857 -0.0042610033
000350 37 28 de 3a 9e 1c 18 bc d4 3e 53 bd 5d 79 66 bc
       0.0016949241 -0.009284167 -0.05157359 -0.014067021
000360 98 14 c2 3b 2d 14 80 bc 3b 47 cc 3c 3c d0 e2 3c
       0.005922865 -0.01563462 0.02493631 0.027687185
000370 d9 56 16 bd 2a fe 4f bd e0 33 23 bd 24 42 c2 3a
       -0.036703918 -0.0507795 -0.039844394 0.0014820737
000380 7e 5d c6 3c 57 ce c5 3b 0d b5 42 bc a8 03 1a 3c
       0.024214502 0.0060365605 -0.011883986 0.009400286
000390 e7 26 14 bd c4 37 81 3a f6 7d ac bb 78 e0 06 3d
       -0.036169913 0.0009858538 -0.005264039 0.032928914
0003a0 81 3c 8f bc c1 7c 64 bc c5 3b 12 3a 9f 20 c7 bc
       -0.017484905 -0.013945759 0.00055783644 -0.024307547
0003b0 af 90 d5 ba 64 f8 69 3b 0b 90 88 3b 6e 7c 31 bc
       -0.001629373 0.003570103 0.004167562 -0.010832889
0003c0 27 e5 71 bb 48 a6 82 bb 7a 13 6f 3a 85 d0 0a bc
       -0.0036910267 -0.0039871074 0.00091200287 -0.0084725665
0003d0 f8 6e a1 ba be b5 96 3b 6d a9 6a bc cb 6b b3 bc
       -0.0012316396 0.004599302 -0.014322621 -0.021901986
0003e0 15 07 6f 3c 42 dd 0e 3d ec 59 9f 3b 2f 8b c8 bc
       0.014589091 0.034878977 0.0048630144 -0.02448043
0003f0 f1 1e 8c bc cd d4 18 3c da cb 93 3b c9 7c 24 ba
       -0.017104598 0.009328079 0.004510385 -0.0006274698

transformer.wte.weight f4 [50257, 2]
000000 45 c5 74 3b ba 10 22 bc 70 46 91 3c 6d 0d c8 3b
       0.0037349027 -0.009891683 0.017733783 0.006105116
000010 f5 5e 1e bd 68 83 f4 bb 62 4b 57 3c 33 49 04 3c
       -0.038664777 -0.007461954 0.013140531 0.008074093
000020 7e 49 29 3c f0 48 99 3b 8d c6 13 3c fa 9b 84 3c
       0.010332463 0.0046778843 0.009019506 0.016187657
000030 c2 a5 bb bb 7c 34 da 3c 61 93 93 3c 29 4e de bc
       -0.005726547 0.026636355 0.018014612 -0.027136879
000040 fb d6 0d 3d 00 ec 7b bc b6 c4 ac 3c 1c ba 05 3c
       0.03462885 -0.015376091 0.021089893 0.008162048
000050 13 62 70 bd 21 df 5b 3c 65 a6 81 3c e4 fd cb 3c
       -0.05868728 0.013419897 0.015826413 0.024901338
000060 35 65 d4 3c fb 9c 1b bd 7e 43 09 bd f6 20 7d 3b
       0.025927166 -0.037991505 -0.03351163 0.0038624383
000070 11 7b 58 bc 32 c4 89 3c 95 72 47 bc d8 12 cd bc
       -0.013212935 0.016817186 -0.012173315 -0.0250334
000080 46 d7 57 3c 25 71 de bc 4a 85 7d 3c f3 86 be bb
       0.013173884 -0.02715356 0.015473673 -0.005814427
000090 08 0b 37 3d 87 15 82 bc 23 2c 0b bd 35 33 64 bb
       0.044688255 -0.015879406 -0.03397764 -0.003482056
0000a0 a8 d4 19 bd e0 3c 30 bc 37 3a a7 bc b0 d2 89 bc
       -0.03755632 -0.010756701 -0.020413501 -0.016824096
0000b0 82 9c 80 bc 82 bc b0 bc d5 c6 46 3c 80 8f ea bb
       -0.015699629 -0.021574263 0.012132366 -0.00715822
0000c0 42 94 20 bd 58 26 04 3d ff ec 8d 3c 23 91 be 3b
       -0.03920389 0.03226313 0.017324923 0.0058156415
0000d0 54 3c 1c bc ff 87 13 3c da 49 ca 3c 8e b0 7d bc
       -0.009535868 0.009004592 0.024693418 -0.015483988
0000e0 1f e0 89 3b 15 7c ed bc b5 03 64 3d 2d f8 99 bc
       0.0042076255 -0.028989831 0.055667598 -0.018795097
0000f0 6f 0d e4 bc 2b f1 35 bd 6a b9 1b bc f0 0c 16 3d
       -0.027838437 -0.04441945 -0.009504655 0.036633432
000100 7b 21 00 bc dc 60 5d 3c 22 1a 3f 3b 79 e9 7b 3c
       -0.007820482 0.013511863 0.0029159863 0.015375488
000110 6d 8b dc 3b 20 6c 7d 3c 53 56 3b 3d c1 11 53 bb
       0.006730488 0.015467674 0.045736622 -0.0032206627
000120 61 65 62 3c 22 33 64 bc 46 5f 47 bd 34 88 f6 3c
       0.013818116 -0.013928207 -0.048674844 0.030094244
000130 d9 f4 96 bc fe f1 af ba 7e af 18 3c db 10 14 3d
       -0.0184273 -0.001342356 0.009319184 0.036148887
000140 ad f0 86 3b 52 4c 99 3b 65 83 5f 3c e4 5a 64 3b
       0.0041180463 0.0046782875 0.013642167 0.0034844214
000150 1f a3 5e 3c 84 53 9b bb 6d ad b6 b9 f8 df 8a 3c
       0.013588696 -0.0047401804 -0.00034842957 0.0169525
000160 06 52 97 3c 7d 1c 74 3c f2 ce 90 bc b7 09 b8 3b
       0.018471729 0.01489937 -0.017676804 0.0056163925
000170 de 7e 8c ba bd 9c 26 bc a8 cb a5 bc c4 f5 7a bc
       -0.0010718962 -0.010169205 -0.020238712 -0.015317384
000180 24 04 7c bd e9 c3 73 3c b4 4b 87 bc 80 25 5e 3c
       -0.061527386 0.014878252 -0.01651559 0.013558745
000190 50 36 b9 3c ea b5 b9 bc 8c 57 19 bc 76 2e 6f 3a
       0.022608906 -0.022669751 -0.009359252 0.00091240497
0001a0 3c b4 e9 bc d8 71 6d b9 aa c1 03 bc 6d a3 c1 3b
       -0.028528325 -0.00022644491 -0.008041779 0.0059093744
0001b0 fc 38 1e bd 12 a6 0c bd 44 0d 2d 3c 15 69 5b 3c
       -0.038628563 -0.034338064 0.010562245 0.013391753
0001c0 30 3f 31 3c ec cf 21 bc 46 f5 b6 3c 3a 3b 19 bc
       0.010818288 -0.009876233 0.022333752 -0.0093525
0001d0 19 3b bf 3a b0 d9 01 3c c2 4f 6d 3c 0a 2f 99 3c
       0.0014589756 0.007925436 0.014484348 0.018699188
0001e0 65 fc 0a bc f6 1e 6b 3c e4 66 c2 bc 17 1d 21 3d
       -0.008483027 0.014350643 -0.023730703 0.039334383
0001f0 c5 60 5f bc 48 fb 6c bc 84 47 82 3b 50 35 87 3b
       -0.0136339115 -0.014464207 0.0039758105 0.0041262284
000200 a5 d2 25 bd fb e5 b0 ba 54 35 2a bd c9 09 cd 3c
       -0.04048409 -0.0013496274 -0.041554764 0.02502908
000210 6f fb ef bc ed 5b de 3c 47 2f ff 3b d0 79 bb 3c
       -0.029294698 0.027143443 0.0077876183 0.022885233
000220 2b f8 e9 3b b3 a3 6a bc 70 5b 2e bc a5 ee 12 3d
       0.0071401796 -0.0143212555 -0.010641918 0.03587212
000230 ab 2f ea 3b 1e a1 05 3c 2e 74 06 ba be 83 1e bd
       0.0071467957 0.008156089 -0.00051290065 -0.038699858
000240 c4 c8 ea 3c 0d 7f 56 3c 5f 64 5d b9 45 95 af bc
       0.028660186 0.013091815 -0.00021113594 -0.021433482
000250 82 52 d6 b8 58 41 e6 3c bb ba c5 3a b3 61 2d bc
       -0.000102196835 0.02810733 0.0015085557 -0.010582375
000260 f9 5c 09 3c cd dc 05 3c 58 7a 48 37 5e ad d5 3c
       0.008383983 0.008170319 1.1949414e-05 0.026083644
000270 b9 01 17 3c 97 7e 3c 3c e9 10 1f 3d b5 a4 f9 3b
       0.009216719 0.011504791 0.038834486 0.0076185116
000280 d8 b0 8d 3c 8c 4b c3 b9 12 34 2f 3d b8 c5 ed 3b
       0.01729624 -0.00037249585 0.042774267 0.007256236
000290 0a 7e b5 bb 1f 40 d8 bb 96 1f ab 3b 1b b3 97 bc
       -0.0055387067 -0.0065994407 0.005222271 -0.018518021
0002a0 2d 19 10 3c 4c 1d 28 3d b1 84 9d 3b 35 ec ce 3c
       0.008795065 0.041043565 0.004807078 0.025259117
0002b0 61 38 bb bc db 36 bd bb 26 a5 2b 3c 6e b6 2f 3c
       -0.022854032 -0.0057743615 0.010476386 0.010724647
0002c0 9e a4 c0 3c 92 02 84 bc f4 1c 24 b9 7a 58 09 3c
       0.023515996 -0.016114507 -0.00015651045 0.008382911
0002d0 31 99 9d 3c 85 37 95 bc 3b 2a 98 bc ed 93 2f 3c
       0.019238086 -0.01821495 -0.018574825 0.010716421
0002e0 5f d6 9a bb 48 5e 3f bc 26 22 c6 bc 19 7c c1 bb
       -0.004725262 -0.011680193 -0.024186205 -0.005904686
0002f0 07 fa 90 3c db d3 1c bc 32 5d 06 bb 55 86 38 3c
       0.017697347 -0.009571995 -0.0020502326 0.011262496
000300 1d bb 7c bc a3 65 e2 3a 2a 19 ac bc ac 24 00 3b
       -0.015425471 0.0017272722 -0.021008093 0.0019553108
000310 83 6e e0 bb dc fb cf 3c 5b 23 6f bc 1b 11 b2 bc
       -0.0068491115 0.02538865 -0.014595832 -0.021736672
000320 a1 62 86 bc 01 de b5 3c 67 26 0b bb 38 35 18 3b
       -0.016404452 0.022200586 -0.0021232606 0.002322508
000330 db 90 80 bc 23 24 06 bc 64 b8 48 bb c9 58 b9 bc
       -0.015694072 -0.008187327 -0.0030627484 -0.022625344
000340 15 a0 91 3c 6e c7 0a bc 95 6d c5 ba 6d 09 5f bc
       0.017776528 -0.008470399 -0.0015062565 -0.013613087
000350 1e c9 d1 3c 9c a7 58 b9 75 37 0b 3d 7b f7 89 39
       0.025608595 -0.00020661805 0.033988435 0.00026315064
000360 48 ab 45 bc b1 4b 18 bd 8f 5b 95 bc 30 fc 2e bb
       -0.012064762 -0.03718156 -0.018232135 -0.0026700608
000370 10 d0 05 3d 81 a9 c8 3c 61 12 9f ba d3 c6 01 3d
       0.032669127 0.024494888 -0.0012136215 0.031683754
000380 5e c0 05 bd a3 95 3b 3c a6 3a 12 bd e2 df 65 bb
       -0.03265416 0.01144925 -0.035700463 -0.0035076072
000390 fc 68 6f bc ac aa 0c bc d5 bb c0 bc 4f d7 1f 3d
       -0.014612433 -0.008585613 -0.023527065 0.039023694
0003a0 40 83 2f 3d 70 76 44 bc 82 75 9f 3c df 2c 68 3a
       0.04284978 -0.011991128 0.019465212 0.0008856784
0003b0 94 ca bf 3b 74 7b b4 b9 67 cf 23 3c 83 04 12 3d
       0.0058530066 -0.00034424255 0.009998179 0.035648834
0003c0 a3 68 6a bc d3 e9 bf 3c 74 f9 a8 bb dc 67 09 bc
       -0.014307174 0.023426926 -0.0051566903 -0.008386578
0003d0 1b 79 72 bc 50 16 95 3c 02 44 f8 ba 86 bc 4d 3d
       -0.014799382 0.018199116 -0.0018941166 0.050228618
0003e0 e4 19 f1 bc a6 92 24 3d 4b 94 6b bb 0e 73 b2 bb
       -0.02943129 0.040178917 -0.0035946544 -0.0054458445
0003f0 bd 87 23 3c 8c 34 a3 bc 18 94 bd 3b 69 ca fd 3a
       0.009981093 -0.019922517 0.0057854764 0.0019362691
